app/src/main/ml/spamsnap_model_english.tflite (tflite, 10796 bytes, 2 tensors)

sequential_18/dense_22/BiasAdd/ReadVariableOp f4 [2]
000000 a1 15 19 be a1 15 19 3e
       -0.14949657 0.14949657

sequential_18/dense_22/MatMul f4 [2, 1189]
000000 1a 95 ac be a8 42 0d 3e 7a 05 c4 bd 0b ec 4b be
       -0.33707505 0.13794959 -0.09571357 -0.19914262
000010 b8 28 f5 bd 8e 5a 2a be 47 8b 3b be 1a 27 c4 3d
       -0.11970657 -0.16636106 -0.18314849 0.095777705
000020 69 3e 87 3c e3 72 38 3e 63 a8 14 3e 86 47 72 3e
       0.016509252 0.18012576 0.1451736 0.23660097
000030 03 c6 3a 3e 4f 87 85 3e 8c 98 1f be d0 14 10 3e
       0.18239598 0.26079795 -0.15585536 0.1407044
000040 98 d1 5c 3e 1c 88 29 3e 66 29 1e 3e e9 ee 41 be
       0.21564329 0.16555828 0.1544548 -0.18938793
000050 b2 33 cd 3d 19 90 22 3e c0 69 1d 3e 07 15 56 3e
       0.10019626 0.15875281 0.15372372 0.20906459
000060 39 12 50 be 8b 41 58 3e 2a 67 53 be b8 e3 5e 3e
       -0.20319451 0.21118753 -0.20644823 0.21766555
000070 69 d9 13 3e 5c 62 28 be aa ba 09 be 7a 5a 2d be
       0.14438404 -0.16443771 -0.13450113 -0.16929045
000080 3c d7 5c be b1 b7 32 be 53 c4 64 3e 26 24 6d 3e
       -0.2156648 -0.17452885 0.22340517 0.23158321
000090 e8 6b 51 3e e2 29 ba 3d 82 89 21 be c0 a4 e9 bd
       0.20451319 0.0909002 -0.15775111 -0.11408377
0000a0 0e 0b 2a be f3 0b 1e 3e a5 2b 24 be e4 dd 0a be
       -0.1660578 0.15434246 -0.16032274 -0.13561207
0000b0 26 a8 14 be 63 00 58 be da 2f 02 be 0c 2b 04 be
       -0.14517269 -0.21093898 -0.12713566 -0.12907046
0000c0 e9 11 55 3e e6 4f 4a be 00 d3 08 be 64 0f 43 be
       0.20807613 -0.19757041 -0.1336174 -0.1904884
0000d0 64 b1 81 3e c3 04 6e 3e 14 40 5c 3e aa 3d 4b bd
       0.2533065 0.23244004 0.21508819 -0.049619354
0000e0 30 b7 2a 3e f6 52 84 3e af d7 43 be 13 c9 75 3e
       0.16671443 0.25844544 -0.19125246 0.24002485
0000f0 cd 9b b8 3d 30 fa 82 3e ca db bf bd c9 4e 03 be
       0.09014092 0.25581503 -0.09368093 -0.12823023
000100 36 13 47 be ad fb e6 3d dd da f9 3d d5 80 0b 3e
       -0.19440922 0.11278472 0.12199948 0.13623364
000110 4d b3 18 3e 2c dc 08 3e a6 3f 49 be a7 55 51 3e
       0.14912148 0.13365239 -0.19653186 0.2044283
000120 33 42 41 3e 81 b8 ab bc e6 72 3a 3e 28 ef f9 3d
       0.18872909 -0.020962002 0.18207893 0.122038186
000130 dd 1b 68 be a5 e3 54 3e 88 df 52 3e 88 8f 75 3e
       -0.22666879 0.20789964 0.20593083 0.23980534
000140 0a 55 04 3e c8 50 64 3e 98 9b f7 bd 18 ee 03 3e
       0.12923065 0.2229644 -0.12090224 0.12883794
000150 36 6e 6d 3e b7 1e f6 3d e1 7e 02 be 0f 0e f9 3d
       0.23186573 0.12017577 -0.12743713 0.121608846
000160 37 73 5c 3e a0 4b 21 3e d0 63 40 3e 98 c1 fd bd
       0.21528326 0.15751505 0.18788075 -0.12390441
000170 09 bd 36 be 0c 9d 74 3e 32 89 29 3e 19 7c 70 bb
       -0.17845549 0.23888034 0.16556242 -0.0036695062
000180 4f eb 55 3e f4 e4 a8 3d 5f 75 1d 3c 77 98 b8 bd
       0.20890544 0.08246794 0.009610503 -0.09013455
000190 e5 70 40 be ae 63 6b 3e 35 1a 0e 3e a7 46 03 3e
       -0.18793066 0.22987244 0.13877185 0.1281992
0001a0 e4 fd 17 be 7a ef 22 3e 28 89 45 be 49 cf 6c 3e
       -0.14842945 0.15911666 -0.19290602 0.23125948
0001b0 2c 6e 56 be 2c 81 0a be b9 e9 c9 3d 35 2e 8d be
       -0.20940465 -0.13525838 0.09859032 -0.27574316
0001c0 97 e9 16 3e 99 ba 05 3e 60 dd 3b 3e c6 b4 ae bd
       0.14737545 0.13059463 0.18346167 -0.085305735
0001d0 32 24 fc 3d fc 8f 36 3e b7 62 79 be 7c c8 b1 bd
       0.12311591 0.17828363 -0.24354063 -0.086808175
0001e0 53 6b 3b be 10 91 29 be d5 ed 38 be 77 16 c6 3d
       -0.1830266 -0.16559243 -0.18059476 0.096722536
0001f0 84 d8 f8 bd 12 18 0b 3e 64 dd 62 3e 6e 3d e6 bd
       -0.12150672 0.13583401 0.22154766 -0.112421855
000200 c0 87 88 3e bb 4e 35 3e 60 07 31 be a3 7e 13 3e
       0.2666607 0.17705815 -0.1728797 0.14403777
000210 35 89 17 3e 04 cf ad 3d 16 b2 61 3e 9b 76 29 3e
       0.14798434 0.08486751 0.2204059 0.1654915
000220 d3 a5 3a 3e 23 25 e2 3d f5 8d 4c be 63 20 06 be
       0.1822732 0.110422395 -0.19976027 -0.13098292
000230 67 d5 15 be 6d 41 2b be 7f a9 ea 3c 57 fc 7a 3e
       -0.14632188 -0.16724177 0.028645275 0.24510323
000240 f1 c9 2b 3e 3e 9f 38 3e e0 f7 b5 bd 1b a7 7b be
       0.16776253 0.18029496 -0.08885169 -0.24575464
000250 4b e0 de 3d 26 66 26 3e d9 7f 9b bd 56 25 4e be
       0.10882624 0.16249904 -0.075927444 -0.2013143
000260 d1 f8 a7 bd 72 09 31 be 0b 52 37 be 1a 3e 67 3e
       -0.08201755 -0.1728876 -0.1790239 0.22582284
000270 ac 41 8b 3e 2e 68 40 3e a4 36 fe bd 07 1f 98 bd
       0.2719854 0.18789741 -0.124127656 -0.07427793
000280 c5 b5 6b 3e 3d 23 e9 bd 42 12 d0 bd 7c a8 e9 bd
       0.23018558 -0.11383674 -0.101597324 -0.11409089
000290 b0 b8 60 bd 8e 4a 7a bd 43 d5 a7 3d 1e 6b 57 be
       -0.05486363 -0.061106257 0.08194973 -0.21036956
0002a0 3f 95 f0 3d f5 eb e5 3d 73 95 99 3e a0 23 48 3e
       0.117472164 0.11226646 0.29996833 0.1954484
0002b0 f5 1a 43 be ab 9d ba 3d 3c 63 01 be a7 d3 37 be
       -0.19053252 0.09112104 -0.12635511 -0.17951833
0002c0 a3 7c 46 be c2 20 0c be f3 ff 33 be a7 47 b2 3d
       -0.19383483 -0.13684371 -0.17578106 0.08705073
0002d0 8b 55 28 be 12 28 10 3e 50 4c 36 3e fd 68 71 3e
       -0.16438882 0.14077786 0.17802548 0.23575206
0002e0 f9 b3 04 3e 82 fa 4c be 64 30 ef 3d 7b d9 2b 3e
       0.12959279 -0.20017436 0.11679152 0.16782181
0002f0 23 3e 3d be 3e d3 0d be 08 36 0a be b3 13 4f be
       -0.18480735 -0.13850114 -0.13497174 -0.20222358
000300 ef 15 3c be 85 6a 54 be 31 41 4c be af 18 25 be
       -0.18367742 -0.20743759 -0.19946744 -0.16122697
000310 83 a8 4f 3e 60 d4 0a 3e 44 63 2f 3e 41 d3 83 bd
       0.20279126 0.13557577 0.1712771 -0.06436778
000320 c3 67 27 3e 2f 40 20 be 79 1c 14 be a8 28 bb 3d
       0.16348176 -0.15649484 -0.14463986 0.09138614
000330 27 ba 38 be da 1c 33 3e 3d 99 71 3e ab 00 b7 bd
       -0.18039761 0.17491475 0.23593612 -0.08935674
000340 a2 f2 c3 bd d8 7a 08 3e 6d 8b 01 be 6b f3 3d be
       -0.09567763 0.13328111 -0.12650843 -0.18549888
000350 0d 99 56 3e 82 bd 19 3e 16 55 00 be 91 f7 78 be
       0.20956822 0.15013698 -0.12532458 -0.24313189
000360 fc 6b f9 3d d9 77 27 be 03 79 56 be 38 c1 11 be
       0.121787995 -0.16354312 -0.209446 -0.14233863
000370 ca 44 3b be 2c e0 88 be 6f e3 16 be 25 a2 05 be
       -0.1828796 -0.2673353 -0.14735197 -0.13050134
000380 9e 9b 91 3d fd ed 59 be c5 bf 39 be 01 71 15 be
       0.0710976 -0.21282192 -0.1813956 -0.14593889
000390 13 87 63 be 0c d1 0e 3e 0d 26 2a be 50 4c df 3d
       -0.22219495 0.13946933 -0.16616078 0.10903227
0003a0 e3 9d ee bd 7a 44 ee bd 1f 9f 04 be fe 49 28 3e
       -0.11651208 -0.116341546 -0.12951325 0.16434476
0003b0 7f 84 63 3e 0b 1f 0c be 2b 9b 62 3e f1 68 66 3e
       0.22218512 -0.13683717 0.22129504 0.2250097
0003c0 c2 44 80 3d 0a 5b 37 3e 95 19 11 be 0f 5a 01 3e
       0.062631145 0.17905822 -0.14169915 0.12632011
0003d0 23 5b 3b be 75 4d 6b 3e 7a 83 db 3d 58 95 b1 bd
       -0.18296485 0.22978766 0.107184365 -0.08671063
0003e0 2a 75 59 be e8 fe 35 3e f9 91 31 be 09 91 c5 bd
       -0.21236101 0.1777302 -0.1734084 -0.09646804
0003f0 86 ea bd bd 9a ab 26 be c1 32 2d be 97 7f 42 3d
       -0.092732474 -0.16276398 -0.16913892 0.04748496
