app/src/main/ml/spamsnap_model_hindi.tflite (tflite, 27524 bytes, 2 tensors)

sequential_11/dense_11/BiasAdd/ReadVariableOp f4 [2]
-0.14779343 0.1477934
00000000: 2957 17be 2757 173e

sequential_11/dense_11/MatMul f4 [2, 3280]
-0.15023775 -0.054928992 -0.11382527 -0.10893458 -0.05337189 -0.09670821 -0.06943521 -0.11447178
-0.06162273 -0.1450919 -0.11515955 -0.10585342 -0.11682756 -0.14554255 -0.100652225 -0.14835085
-0.09275863 -0.058566052 -0.07607999 -0.12318926 -0.122886494 -0.083898224 -0.09390303 -0.08224686
-0.063107766 -0.05217367 0.012651213 0.07795668 -0.11124111 0.19645137 0.16326411 0.14471012
0.1293474 0.10945851 0.18224649 0.14530326 0.1515805 0.12961613 0.07935117 0.1125895
0.12329477 0.12125857 0.11250728 0.04904147 0.13480644 0.13782412 0.11772385 0.116067454
0.14348663 0.11757447 0.06852539 0.086101204 0.15553056 0.09808307 0.12989688 -0.058958657
0.11593556 -0.078666866 0.13396265 0.1367238 0.15974407 0.07941525 0.08890771 0.10331517
0.13106377 -0.09619165 0.049349215 0.07555741 0.16236049 0.10585424 -0.17558178 0.07144585
0.18911152 0.06626015 0.0798424 0.12232992 0.13140675 0.17277959 -0.043520413 0.07792403
0.15415779 0.14601037 0.13190666 0.11873787 0.09678334 0.07003939 0.12587579 0.13859975
0.050330203 -0.14297923 -0.14489315 0.14219162 0.15654013 -0.10924099 -0.11729414 -0.05949032
0.09886345 0.11372418 -0.09856551 0.12704003 0.09518168 -0.07965424 -0.098669894 -0.103831805
-0.14055215 -0.09092142 -0.15638907 0.167832 0.079939924 0.083644405 -0.11133473 -0.07377835
-0.12351576 0.13564584 -0.09528714 -0.11169094 0.045031574 -0.053473014 -0.06695906 0.042206977
-0.10279139 -0.077983 -0.05550008 -0.15101407 -0.07937022 -0.14743811 -0.12109568 -0.04292069
0.08618374 -0.101817325 0.17167497 -0.107643165 -0.1135573 0.11455706 0.13111192 -0.103434406
-0.08593626 -0.12481383 -0.12023558 -0.08456979 -0.14066334 0.046142835 -0.15667051 -0.09975544
-0.099798486 0.08113014 -0.07683516 -0.16797301 -0.11800444 -0.095203325 -0.07709172 -0.024162425
0.11011514 0.06327323 0.07169999 -0.082856126 0.124680966 0.09810523 0.13103047 0.10088957
-0.13379563 0.14529963 -0.12989303 -0.09622631 0.15664032 0.11505018 -0.11611905 -0.13735281
0.11527208 0.14949979 0.108281374 0.07624675 -0.13872987 -0.12287597 -0.09226083 -0.14646465
0.09443181 0.1320552 -0.11188977 -0.072186165 -0.052090224 -0.091191605 -0.08578577 -0.09000663
-0.102261536 -0.120494 0.17300549 0.16132599 0.13247606 -0.14489609 -0.13697532 -0.105177805
-0.11210041 0.14761023 0.13964982 0.13735636 0.14736624 0.15276057 0.0789978 -0.028327482
-0.06424495 0.08953078 -0.15814917 -0.092438675 0.11255451 0.06925197 -0.17389464 -0.17288245
-0.12597525 -0.08480131 0.13641931 0.07558939 -0.10553821 -0.10331807 0.12008538 0.14615242
0.10169469 0.12466416 0.062376536 0.13736257 0.11189944 0.1211509 -0.14089261 -0.057977002
-0.061503295 0.16018829 0.13774857 0.114207745 0.13696247 0.070572905 0.1266588 0.09619288
0.06323764 0.14036031 0.102324754 0.1040822 -0.092350595 0.1343975 0.1449452 0.08985127
0.13574457 0.12788518 -0.11834762 -0.083861984 -0.11133473 -0.07377819 0.093970925 0.13521205
0.12713331 0.10860497 0.10501685 0.1500092 0.15201993 0.11171241 0.18431401 0.11409627
00000000: edd7 19be 39fd 60bd 391d e9bd 1819 dfbd
00000010: 7c9c 5abd f40e c6bd 0c34 8ebd 2e70 eabd
00000020: 1e68 7cbd f992 14be c5d8 ebbd aec9 d8bd
00000030: 4a43 efbd 1b09 15be c122 cebd 49e9 17be
00000040: 3df8 bdbd f5e2 6fbd d3cf 9bbd a74a fcbd
00000050: eaab fbbd d5d2 abbd 3b50 c0bd 0b71 a8bd
00000060: a53e 81bd 0fb4 55bd 0947 4f3c c0a7 9f3d
00000070: 61d2 e3bd 8c2a 493e b52e 273e e42e 143e
00000080: a573 043e c92b e03d d39e 3a3e 61ca 143e
00000090: eb37 1b3e 17ba 043e de82 a23d 5395 e63d
000000a0: f881 fc3d 6a56 f83d 386a e63d b5df 483d
000000b0: b30a 0a3e c421 0d3e 3419 f13d c6b4 ed3d
000000c0: 29ee 123e e2ca f03d 0a57 8c3d d455 b03d
000000d0: 6743 1f3e c7df c83d b003 053e a27e 71bd
000000e0: 9f6f ed3d 181c a1bd 812d 093e 5301 0c3e
000000f0: f393 233e 76a4 a23d 3f15 b63d e796 d33d
00000100: 9535 063e 2100 c5bd 6722 4a3d d8bd 9a3d
00000110: d441 263e 1cca d83d b6cb 33be 3452 923d
00000120: 73a6 413e 67b3 873d 6a84 a33d 1c88 fa3d
00000130: 7e8f 063e 22ed 303e 7642 32bd a296 9f3d
00000140: 8adb 1d3e be83 153e 8a12 073e d72c f33d
00000150: 5836 c63d d070 8f3d 95e5 003e 18ed 0d3e
00000160: 0b27 4e3d 2669 12be df5e 14be ae9a 113e
00000170: 0e4c 203e bdb9 dfbd e937 f0bd 1fac 73bd
00000180: ec78 ca3d 39e8 e83d b7dc c9bd c816 023e
00000190: 9dee c23d c321 a3bd 7113 cabd c5a5 d4bd
000001a0: e7ec 0fbe 0235 babd 7524 20be 27dc 2b3e
000001b0: 8bb7 a33d c24d ab3d 7703 e4bd 1b19 97bd
000001c0: d5f5 fcbd bee6 0a3e e725 c3bd 38be e4bd
000001d0: 0773 383d 8506 5bbd d521 89bd 39e1 2c3d
000001e0: 4b84 d2bd 8db5 9fbd 0d54 63bd 6fa3 1abe
000001f0: db8c a2bd 04fa 16be 0301 f8bd 9bcd 2fbd
00000200: 1a81 b03d 9a85 d0bd 90cb 2f3e 0574 dcbd
00000210: bb90 e8bd e49c ea3d 3442 063e 6bd5 d3bd
00000220: 5aff afbd 659e ffbd 123e f6bd ed32 adbd
00000230: 0d0a 10be 4500 3d3d 3c6e 20be 954c ccbd
00000240: 2663 ccbd 8f27 a63d c15b 9dbd 1e01 2cbe
00000250: 50ac f1bd f6f9 c2bd 44e2 9dbd 47f0 c5bc
00000260: 0c84 e13d 6595 813d 72d7 923d 79b0 a9bd
00000270: bc58 ff3d 65eb c83d da2c 063e 319f ce3d
00000280: b901 09be 6dc9 143e ae02 05be 4d12 c5bd
00000290: 5266 203e 6e9f eb3d d3cf edbd 37a6 0cbe
000002a0: c513 ec3d 7916 193e a0c2 dd3d 4227 9c3d
000002b0: 340f 0ebe 66a6 fbbd 3ff3 bcbd d4fa 15be
000002c0: 7765 c13d 7a39 073e 7726 e5bd 57d6 93bd
000002d0: 8f5c 55bd aac2 babd 73b0 afbd 6555 b8bd
000002e0: 7f6e d1bd 8fc5 f6bd 5a28 313e a432 253e
000002f0: cea7 073e a45f 14be 4243 0cbe 7667 d7bd
00000300: e694 e5bd 2327 173e 5d00 0f3e 25a7 0c3e
00000310: 2de7 163e 446d 1c3e 99c9 a13d 090f e8bc
00000320: db92 83bd ea5b b73d dbf1 21be 7d50 bdbd
00000330: fb82 e63d fad3 8d3d 7011 32be 1908 31be
00000340: a8ff 00be 4fac adbd 81b1 0b3e 9cce 9a3d
00000350: 6b24 d8bd 6d98 d3bd 53ef f53d fba8 153e
00000360: 4e45 d03d ec4f ff3d 8a7e 7f3d c6a8 0c3e
00000370: 892b e53d f71d f83d 2746 10be 4b79 6dbd
00000380: e1ea 7bbd 6608 243e f60d 0d3e c0e5 e93d
00000390: e43f 0c3e 8788 903d d8b2 013e c600 c53d
000003a0: bc82 813d 9dba 0f3e a48f d13d 0c29 d53d
000003b0: 4f22 bdbd 809f 093e 846c 143e f103 b83d
000003c0: a000 0b3e 55f4 023e 3d60 f2bd d5bf abbd
000003d0: 7703 e4bd 0519 97bd d473 c03d 0775 0a3e
000003e0: 3c2f 023e 486c de3d 1313 d73d 039c 193e
000003f0: 1dab 1b3e 7ac9 e43d d0bc 3c3e 4eab e93d
