app/src/main/ml/spamsnap_model_marathi.tflite (tflite, 30696 bytes, 2 tensors)

sequential_4/dense_4/BiasAdd/ReadVariableOp f4 [2]
-0.16053323 0.16053325
00000000: d362 24be d462 243e

sequential_4/dense_4/MatMul f4 [2, 3679]
-0.26811904 -0.121775515 -0.14463185 -0.07553528 -0.13856235 -0.11971746 -0.13431652 -0.09067322
-0.16491972 -0.09062787 -0.137728 -0.13809916 -0.10247735 -0.15152714 -0.11661492 -0.12096625
0.10103163 0.0910001 -0.1405132 -0.12112394 -0.074009776 -0.08503803 -0.07337836 -0.07904584
-0.07940889 -0.05606745 -0.07442485 -0.0814184 0.00960215 0.09514502 -0.035744015 0.18204033
0.20910174 0.1423356 0.1564446 0.13931172 0.1686902 0.19847229 0.14555155 0.17169675
0.110807724 0.086793624 -0.10681361 -0.09772448 0.14800131 0.15627865 0.18967198 0.099089
0.13890402 0.20174181 0.12392881 0.17498387 0.14088921 0.12307782 0.13670655 0.13361321
0.103182554 -0.13466322 0.08512397 0.14371632 -0.12751845 0.1191937 0.19142234 0.07496954
0.08404493 -0.10121121 0.10846246 0.1479702 0.11083624 0.085249044 -0.09167641 0.12909384
0.15486142 0.0831727 -0.07573451 0.08410409 0.2149997 0.13058618 0.10113208 0.1684647
0.16713889 0.115865685 0.20121233 0.11185588 0.20332356 -0.051567204 0.19917803 0.12544338
0.12811929 0.13083991 0.06957651 0.13887818 -0.09607462 -0.16200498 0.16729562 0.17566872
0.17378885 0.14546415 0.18602024 0.14584067 -0.08184848 -0.14317705 -0.13235134 -0.032129362
-0.11811962 0.07472678 -0.1086422 -0.09986683 -0.13534915 0.24566233 0.09028053 -0.10196645
0.07551464 -0.08713331 -0.080991976 0.111653805 -0.10762101 -0.15278883 -0.078421995 0.13365915
-0.10761406 -0.14184843 -0.05478759 0.13142659 -0.08696032 -0.09288424 -0.17422776 0.145334
-0.08276394 -0.09418934 -0.13886337 -0.12922646 -0.08703044 -0.057338074 -0.14583376 -0.19063446
0.07197796 -0.09299799 -0.06652325 -0.043985948 -0.081978604 0.14937967 -0.14541836 -0.10380905
-0.07712664 0.07498483 -0.06037703 -0.12277919 -0.14365698 -0.042941548 -0.16477212 -0.1343822
-0.0675286 -0.14264591 -0.14193755 -0.11230202 -0.11144456 0.14578953 -0.13521716 -0.035974823
0.10450626 0.07504623 0.098840035 0.08944977 -0.16508351 0.20843072 0.07763451 0.12749627
0.14554138 0.13058361 -0.17126624 0.21682845 -0.11961479 -0.104184404 0.15576114 -0.13509971
-0.15006042 0.123936094 0.14166822 0.07218195 0.13189697 -0.17664252 -0.15128979 0.122397594
0.15895529 -0.12005578 -0.07988501 -0.1303781 -0.05921717 -0.07286428 -0.05382649 -0.07497239
0.11289938 0.13883618 -0.11438195 -0.10545011 -0.13215083 -0.12188666 0.12520725 0.12826738
0.13970892 0.15185519 0.11106391 0.15956844 0.10721416 0.12623101 0.103672355 0.13264191
-0.14029485 -0.15980688 0.12635018 0.13652286 -0.17693433 -0.07323697 -0.070847414 -0.0792226
-0.062719226 0.13140708 0.094251305 -0.1277828 -0.13045523 0.20074116 0.17007126 0.1294934
0.09350174 0.09131121 0.14137428 0.09225341 0.11854784 -0.115612365 -0.09541728 -0.07464493
0.14674906 0.20626248 0.16590956 0.20100515 0.06603089 0.08515297 0.0882783 0.109427676
0.13627689 0.12957697 0.13171172 0.14459135 0.17679763 0.14157277 -0.12541598 0.15803263
0.07936073 0.08222532 0.07506281 0.119868204 0.069738686 -0.0806917 -0.09439979 0.08130986
00000000: e646 89be 7165 f9bd 5f1a 14be 3eb2 9abd
00000010: 4ae3 0dbe 6d2e f5bd 458a 09be e2b2 b9bd
00000020: b7e0 28be 1b9b b9bd 9208 0dbe de69 0dbe
00000030: a5df d1bd ee29 1bbe ced3 eebd 27bd f7bd
00000040: ace9 ce3d 435e ba3d b1e2 0fbe d40f f8bd
00000050: 7092 97bd 6b28 aebd 6547 96bd c9e2 a1bd
00000060: 21a1 a2bd fca6 65bd 0e6c 98bd b1be a6bd
00000070: 5652 1d3c 64db c23d 5168 12bd c868 3a3e
00000080: c41e 563e 6cc0 113e 0333 203e bba7 0e3e
00000090: 20bd 2c3e 523c 4b3e 770b 153e 46d1 2f3e
000000a0: 29ef e23d dbc0 b13d 18c1 dabd c623 c8bd
000000b0: a88d 173e 8307 203e 5f39 423e 2cef ca3d
000000c0: db3c 0e3e 6895 4e3e 63ce fd3d f92e 333e
000000d0: 4345 103e 3910 fc3d cdfc 0b3e e7d1 083e
000000e0: 6051 d33d 28e5 09be 7a55 ae3d 5f2a 133e
000000f0: 3294 02be d41b f43d 3804 443e a189 993d
00000100: c01f ac3d d347 cfbd 9121 de3d 8085 173e
00000110: 1cfe e23d 0d97 ae3d d7c0 bbbd 2d31 043e
00000120: fe93 1e3e 7356 aa3d b21a 9bbd c43e ac3d
00000130: e228 5c3e 62b8 053e 561e cf3d 0382 2c3e
00000140: 7526 2b3e fd4a ed3d 9b0a 4e3e b214 e53d
00000150: 0d34 503e 2238 53bd 53f5 4b3e 3b74 003e
00000160: b431 033e e6fa 053e 217e 8e3d 1536 0e3e
00000170: c5c2 c4bd a2e4 25be 8b4f 2b3e 80e2 333e
00000180: b4f5 313e 8ef4 143e 177c 3e3e 4257 153e
00000190: 2da0 a7bd 019d 12be 1c87 07be 149a 03bd
000001a0: b3e8 f1bd 5b0a 993d cd7f debd fb86 ccbd
000001b0: f898 0abe e88e 7b3e 00e5 b83d c9d3 d0bd
000001c0: 6ba7 9a3d f372 b2bd 1fdf a5bd c0aa e43d
000001d0: 6768 dcbd ad74 1cbe b69b a0bd f2dd 083e
000001e0: c364 dcbd b740 11be f468 60bd b194 063e
000001f0: 4118 b2bd 183a bebd c368 32be 70d2 143e
00000200: 2480 a9bd 57e6 c0bd 3332 0ebe f153 04be
00000210: 043d b2bd 54db 6abd 7255 15be ae35 43be
00000220: 2e69 933d bb75 bebd 573d 88bd 9c2a 34bd
00000230: 66e4 a7bd fcf6 183e 8de8 14be d799 d4bd
00000240: 92f4 9dbd a691 993d e84d 77bd a873 fbbd
00000250: d11a 13be 7ae3 2fbd 06ba 28be 7d9b 09be
00000260: 6f4c 8abd c511 12be 1458 11be 9afe e5bd
00000270: 0c3d e4bd da49 153e 5e76 0abe 565a 13bd
00000280: 6107 d63d d6b1 993d a56c ca3d 7131 b73d
00000290: a70b 29be dd6e 553e d8fe 9e3d 628e 023e
000002a0: cd08 153e b6b7 053e 6b60 2fbe 4708 5e3e
000002b0: 99f8 f4bd a25e d5bd d97f 1f3e 9457 0abe
000002c0: 70a9 19be 35d2 fd3d 7911 113e 21d4 933d
000002d0: 0010 073e c7e1 34be b6eb 1abe 97ab fa3d
000002e0: 2dc5 223e cedf f5bd c19a a3bd d681 05be
000002f0: b48d 72bd de39 95bd 2a79 5cbd 208b 99bd
00000300: ca37 e73d 122b 0e3e 1541 eabd 3af6 d7bd
00000310: 8c52 07be b79f f9bd 5436 003e 8658 033e
00000320: db0f 0f3e ed7f 1b3e 7a75 e33d e965 233e
00000330: 1993 db3d b442 013e 2c52 d43d 48d3 073e
00000340: 74a9 0fbe 6aa4 23be f161 013e a6cc 0b3e
00000350: 462e 35be 44fd 95bd 7318 91bd 753f a2bd
00000360: f072 80bd 948f 063e d406 c13d 7fd9 02be
00000370: 0e96 05be 178f 4d3e 2927 2e3e eb99 043e
00000380: d77d bf3d 5f01 bb3d 6bc4 103e 5bef bc3d
00000390: 36c9 f23d 2dc6 ecbd 236a c3bd 71df 98bd
000003a0: 6345 163e 7936 533e 32e4 293e 4bd4 4d3e
000003b0: 343b 873d ae64 ae3d 41cb b43d 9e1b e03d
000003c0: 2b8c 0b3e d3af 043e 70df 063e c10f 143e
000003d0: 700a 353e 74f8 103e 0c6d 00be 4ed3 213e
000003e0: e187 a23d c065 a83d 88ba 993d 767d f53d
000003f0: 28d3 8e3d b141 a5bd ad54 c1bd c985 a63d
